…
I0825 19:54:51.438755 23095 net.cpp:294] The NetState phase (0) differed from the phase (1) specified by a rule in layer data
I0825 19:54:51.438868 23095 net.cpp:51] Initializing net from parameters: 
name: "mouth"
state {
  phase: TRAIN
  level: 0
  stage: ""
}
layer {
  name: "data"
  type: "ImageData"
  top: "data"
  top: "clc-label"
  include {
    phase: TRAIN
  }
  transform_param {
    mirror: true
    crop_size: 48
    mean_value: 104.008
    mean_value: 116.669
    mean_value: 122.675
  }
  image_data_param {
    source: "all_shuffle_train.txt"
    batch_size: 96
    shuffle: true
  }
}
layer {
  name: "conv1"
  type: "Convolution"
  bottom: "data"
  top: "conv1"
  param {
    lr_mult: 1
    decay_mult: 1
  }
  param {
    lr_mult: 2
    decay_mult: 0
  }
  convolution_param {
    num_output: 12
    pad: 1
    kernel_size: 3
    stride: 2
    weight_filler {
      type: "xavier"
      std: 0.01
    }
    bias_filler {
      type: "constant"
      value: 0.2
    }
  }
}
layer {
  name: "relu1"
  type: "ReLU"
  bottom: "conv1"
  top: "conv1"
}
layer {
  name: "conv2"
  type: "Convolution"
  bottom: "conv1"
  top: "conv2"
  param {
    lr_mult: 1
    decay_mult: 1
  }
  param {
    lr_mult: 2
    decay_mult: 0
  }
  convolution_param {
    num_output: 20
    pad: 1
    kernel_size: 3
    stride: 2
    weight_filler {
      type: "xavier"
      std: 0.1
    }
    bias_filler {
      type: "constant"
      value: 0.2
    }
  }
}
layer {
  name: "relu2"
  type: "ReLU"
  bottom: "conv2"
  top: "conv2"
}
layer {
  name: "conv3"
  type: "Convolution"
  bottom: "conv2"
  top: "conv3"
  param {
    lr_mult: 1
    decay_mult: 1
  }
  param {
    lr_mult: 2
    decay_mult: 0
  }
  convolution_param {
    num_output: 40
    pad: 1
    kernel_size: 3
    stride: 2
    weight_filler {
      type: "xavier"
      std: 0.1
    }
    bias_filler {
      type: "constant"
      value: 0.2
    }
  }
}
layer {
  name: "relu3"
  type: "ReLU"
  bottom: "conv3"
  top: "conv3"
}
layer {
  name: "ip1-mouth"
  type: "InnerProduct"
  bottom: "conv3"
  top: "pool-mouth"
  param {
    lr_mult: 1
    decay_mult: 1
  }
  param {
    lr_mult: 2
    decay_mult: 0
  }
  inner_product_param {
    num_output: 128
    weight_filler {
      type: "xavier"
    }
    bias_filler {
      type: "constant"
      value: 0
    }
  }
}
layer {
  name: "fc-mouth"
  type: "InnerProduct"
  bottom: "pool-mouth"
  top: "fc-mouth"
  param {
    lr_mult: 1
    decay_mult: 1
  }
  param {
    lr_mult: 2
    decay_mult: 1
  }
  inner_product_param {
    num_output: 2
    weight_filler {
      type: "xavier"
    }
    bias_filler {
      type: "constant"
      value: 0
    }
  }
}
layer {
  name: "loss"
  type: "SoftmaxWithLoss"
  bottom: "fc-mouth"
  bottom: "clc-label"
  top: "loss"
}
layer {
  name: "acc"
  type: "Accuracy"
  bottom: "fc-mouth"
  bottom: "clc-label"
  top: "acc"
  include {
    phase: TRAIN
  }
  include {
    phase: TEST
  }
}
I0825 19:54:51.438959 23095 layer_factory.hpp:77] Creating layer data
I0825 19:54:51.443511 23095 net.cpp:84] Creating Layer data
I0825 19:54:51.443563 23095 net.cpp:380] data -> data
I0825 19:54:51.443598 23095 net.cpp:380] data -> clc-label
I0825 19:54:51.443995 23095 image_data_layer.cpp:43] Opening file all_shuffle_train.txt
I0825 19:54:51.444005 23095 io.cpp:296] Opening file all_shuffle_train.txt
I0825 19:54:51.445442 23095 io.cpp:321] Read 900 images with 1 labels
I0825 19:54:51.445453 23095 image_data_layer.cpp:61] Shuffling data
I0825 19:54:51.445619 23095 image_data_layer.cpp:71] A total of 900 images.
I0825 19:54:51.446362 23095 image_data_layer.cpp:98] output data size: 96,3,48,48
I0825 19:54:51.459035 23095 net.cpp:122] Setting up data
I0825 19:54:51.459062 23095 net.cpp:129] Top shape: 96 3 48 48 (663552)
I0825 19:54:51.459066 23095 net.cpp:129] Top shape: 96 1 1 1 (96)
I0825 19:54:51.459069 23095 net.cpp:137] Memory required for data: 2654592
I0825 19:54:51.459084 23095 layer_factory.hpp:77] Creating layer clc-label_data_1_split
I0825 19:54:51.459096 23095 net.cpp:84] Creating Layer clc-label_data_1_split
I0825 19:54:51.459101 23095 net.cpp:406] clc-label_data_1_split <- clc-label
I0825 19:54:51.459115 23095 net.cpp:380] clc-label_data_1_split -> clc-label_data_1_split_0
I0825 19:54:51.459126 23095 net.cpp:380] clc-label_data_1_split -> clc-label_data_1_split_1
I0825 19:54:51.459271 23095 net.cpp:122] Setting up clc-label_data_1_split
I0825 19:54:51.459280 23095 net.cpp:129] Top shape: 96 1 1 1 (96)
I0825 19:54:51.459283 23095 net.cpp:129] Top shape: 96 1 1 1 (96)
I0825 19:54:51.459286 23095 net.cpp:137] Memory required for data: 2655360
I0825 19:54:51.459298 23095 layer_factory.hpp:77] Creating layer conv1
I0825 19:54:51.459316 23095 net.cpp:84] Creating Layer conv1
I0825 19:54:51.459319 23095 net.cpp:406] conv1 <- data
I0825 19:54:51.459326 23095 net.cpp:380] conv1 -> conv1
I0825 19:54:51.460045 23095 net.cpp:122] Setting up conv1
I0825 19:54:51.460057 23095 net.cpp:129] Top shape: 96 12 24 24 (663552)
I0825 19:54:51.460060 23095 net.cpp:137] Memory required for data: 5309568
I0825 19:54:51.460073 23095 layer_factory.hpp:77] Creating layer relu1
I0825 19:54:51.460080 23095 net.cpp:84] Creating Layer relu1
I0825 19:54:51.460083 23095 net.cpp:406] relu1 <- conv1
I0825 19:54:51.460089 23095 net.cpp:367] relu1 -> conv1 (in-place)
I0825 19:54:51.460094 23095 net.cpp:122] Setting up relu1
I0825 19:54:51.460098 23095 net.cpp:129] Top shape: 96 12 24 24 (663552)
I0825 19:54:51.460101 23095 net.cpp:137] Memory required for data: 7963776
I0825 19:54:51.460103 23095 layer_factory.hpp:77] Creating layer conv2
I0825 19:54:51.460111 23095 net.cpp:84] Creating Layer conv2
I0825 19:54:51.460115 23095 net.cpp:406] conv2 <- conv1
I0825 19:54:51.460121 23095 net.cpp:380] conv2 -> conv2
I0825 19:54:51.460948 23095 net.cpp:122] Setting up conv2
I0825 19:54:51.460960 23095 net.cpp:129] Top shape: 96 20 12 12 (276480)
I0825 19:54:51.460963 23095 net.cpp:137] Memory required for data: 9069696
I0825 19:54:51.460970 23095 layer_factory.hpp:77] Creating layer relu2
I0825 19:54:51.460974 23095 net.cpp:84] Creating Layer relu2
I0825 19:54:51.460978 23095 net.cpp:406] relu2 <- conv2
I0825 19:54:51.460983 23095 net.cpp:367] relu2 -> conv2 (in-place)
I0825 19:54:51.460986 23095 net.cpp:122] Setting up relu2
I0825 19:54:51.460990 23095 net.cpp:129] Top shape: 96 20 12 12 (276480)
I0825 19:54:51.460992 23095 net.cpp:137] Memory required for data: 10175616
I0825 19:54:51.460995 23095 layer_factory.hpp:77] Creating layer conv3
I0825 19:54:51.461004 23095 net.cpp:84] Creating Layer conv3
I0825 19:54:51.461007 23095 net.cpp:406] conv3 <- conv2
I0825 19:54:51.461014 23095 net.cpp:380] conv3 -> conv3
I0825 19:54:51.461560 23095 net.cpp:122] Setting up conv3
I0825 19:54:51.461570 23095 net.cpp:129] Top shape: 96 40 6 6 (138240)
I0825 19:54:51.461573 23095 net.cpp:137] Memory required for data: 10728576
I0825 19:54:51.461580 23095 layer_factory.hpp:77] Creating layer relu3
I0825 19:54:51.461585 23095 net.cpp:84] Creating Layer relu3
I0825 19:54:51.461588 23095 net.cpp:406] relu3 <- conv3
I0825 19:54:51.461593 23095 net.cpp:367] relu3 -> conv3 (in-place)
I0825 19:54:51.461598 23095 net.cpp:122] Setting up relu3
I0825 19:54:51.461602 23095 net.cpp:129] Top shape: 96 40 6 6 (138240)
I0825 19:54:51.461604 23095 net.cpp:137] Memory required for data: 11281536
I0825 19:54:51.461606 23095 layer_factory.hpp:77] Creating layer ip1-mouth
I0825 19:54:51.461613 23095 net.cpp:84] Creating Layer ip1-mouth
I0825 19:54:51.461618 23095 net.cpp:406] ip1-mouth <- conv3
I0825 19:54:51.461622 23095 net.cpp:380] ip1-mouth -> pool-mouth
I0825 19:54:51.462889 23095 net.cpp:122] Setting up ip1-mouth
I0825 19:54:51.462909 23095 net.cpp:129] Top shape: 96 128 (12288)
I0825 19:54:51.462913 23095 net.cpp:137] Memory required for data: 11330688
I0825 19:54:51.462918 23095 layer_factory.hpp:77] Creating layer fc-mouth
I0825 19:54:51.462926 23095 net.cpp:84] Creating Layer fc-mouth
I0825 19:54:51.462929 23095 net.cpp:406] fc-mouth <- pool-mouth
I0825 19:54:51.462934 23095 net.cpp:380] fc-mouth -> fc-mouth
I0825 19:54:51.463006 23095 net.cpp:122] Setting up fc-mouth
I0825 19:54:51.463012 23095 net.cpp:129] Top shape: 96 2 (192)
I0825 19:54:51.463016 23095 net.cpp:137] Memory required for data: 11331456
I0825 19:54:51.463021 23095 layer_factory.hpp:77] Creating layer fc-mouth_fc-mouth_0_split
I0825 19:54:51.463027 23095 net.cpp:84] Creating Layer fc-mouth_fc-mouth_0_split
I0825 19:54:51.463028 23095 net.cpp:406] fc-mouth_fc-mouth_0_split <- fc-mouth
I0825 19:54:51.463034 23095 net.cpp:380] fc-mouth_fc-mouth_0_split -> fc-mouth_fc-mouth_0_split_0
I0825 19:54:51.463042 23095 net.cpp:380] fc-mouth_fc-mouth_0_split -> fc-mouth_fc-mouth_0_split_1
I0825 19:54:51.463068 23095 net.cpp:122] Setting up fc-mouth_fc-mouth_0_split
I0825 19:54:51.463073 23095 net.cpp:129] Top shape: 96 2 (192)
I0825 19:54:51.463075 23095 net.cpp:129] Top shape: 96 2 (192)
I0825 19:54:51.463078 23095 net.cpp:137] Memory required for data: 11332992
I0825 19:54:51.463080 23095 layer_factory.hpp:77] Creating layer loss
I0825 19:54:51.463084 23095 net.cpp:84] Creating Layer loss
I0825 19:54:51.463088 23095 net.cpp:406] loss <- fc-mouth_fc-mouth_0_split_0
I0825 19:54:51.463090 23095 net.cpp:406] loss <- clc-label_data_1_split_0
I0825 19:54:51.463095 23095 net.cpp:380] loss -> loss
…
I0825 19:54:51.463492 23095 net.cpp:294] The NetState phase (1) differed from the phase (0) specified by a rule in layer acc
I0825 19:54:51.463575 23095 net.cpp:51] Initializing net from parameters: 
name: "mouth"
state {
  phase: TEST
}
layer {
  name: "data"
  type: "ImageData"
  top: "data"
  top: "clc-label"
  include {
    phase: TEST
  }
  transform_param {
    mirror: false
    crop_size: 48
    mean_value: 104.008
    mean_value: 116.669
    mean_value: 122.675
  }
  image_data_param {
    source: "all_shuffle_val.txt"
    batch_size: 30
    shuffle: false
  }
}
layer {
  name: "conv1"
  type: "Convolution"
  bottom: "data"
  top: "conv1"
  param {
    lr_mult: 1
    decay_mult: 1
  }
  param {
    lr_mult: 2
    decay_mult: 0
  }
  convolution_param {
    num_output: 12
    pad: 1
    kernel_size: 3
    stride: 2
    weight_filler {
      type: "xavier"
      std: 0.01
    }
    bias_filler {
      type: "constant"
      value: 0.2
    }
  }
}
layer {
  name: "relu1"
  type: "ReLU"
  bottom: "conv1"
  top: "conv1"
}
layer {
  name: "conv2"
  type: "Convolution"
  bottom: "conv1"
  top: "conv2"
  param {
    lr_mult: 1
    decay_mult: 1
  }
  param {
    lr_mult: 2
    decay_mult: 0
  }
  convolution_param {
    num_output: 20
    pad: 1
    kernel_size: 3
    stride: 2
    weight_filler {
      type: "xavier"
      std: 0.1
    }
    bias_filler {
      type: "constant"
      value: 0.2
    }
  }
}
layer {
  name: "relu2"
  type: "ReLU"
  bottom: "conv2"
  top: "conv2"
}
layer {
  name: "conv3"
  type: "Convolution"
  bottom: "conv2"
  top: "conv3"
  param {
    lr_mult: 1
    decay_mult: 1
  }
  param {
    lr_mult: 2
    decay_mult: 0
  }
  convolution_param {
    num_output: 40
    pad: 1
    kernel_size: 3
    stride: 2
    weight_filler {
      type: "xavier"
      std: 0.1
    }
    bias_filler {
      type: "constant"
      value: 0.2
    }
  }
}
layer {
  name: "relu3"
  type: "ReLU"
  bottom: "conv3"
  top: "conv3"
}
layer {
  name: "ip1-mouth"
  type: "InnerProduct"
  bottom: "conv3"
  top: "pool-mouth"
  param {
    lr_mult: 1
    decay_mult: 1
  }
  param {
    lr_mult: 2
    decay_mult: 0
  }
  inner_product_param {
    num_output: 128
    weight_filler {
      type: "xavier"
    }
    bias_filler {
      type: "constant"
      value: 0
    }
  }
}
layer {
  name: "fc-mouth"
  type: "InnerProduct"
  bottom: "pool-mouth"
  top: "fc-mouth"
  param {
    lr_mult: 1
    decay_mult: 1
  }
  param {
    lr_mult: 2
    decay_mult: 1
  }
  inner_product_param {
    num_output: 2
    weight_filler {
      type: "xavier"
    }
    bias_filler {
      type: "constant"
      value: 0
    }
  }
}
layer {
  name: "loss"
  type: "SoftmaxWithLoss"
  bottom: "fc-mouth"
  bottom: "clc-label"
  top: "loss"
}
layer {
  name: "acc"
  type: "Accuracy"
  bottom: "fc-mouth"
  bottom: "clc-label"
  top: "acc"
  include {
    phase: TRAIN
  }
  include {
    phase: TEST
  }
}
I0825 19:54:51.463625 23095 layer_factory.hpp:77] Creating layer data
I0825 19:54:51.463639 23095 net.cpp:84] Creating Layer data
I0825 19:54:51.463644 23095 net.cpp:380] data -> data
I0825 19:54:51.463650 23095 net.cpp:380] data -> clc-label
I0825 19:54:51.463656 23095 image_data_layer.cpp:43] Opening file all_shuffle_val.txt
I0825 19:54:51.463660 23095 io.cpp:296] Opening file all_shuffle_val.txt
I0825 19:54:51.463786 23095 io.cpp:321] Read 100 images with 1 labels
I0825 19:54:51.463793 23095 image_data_layer.cpp:71] A total of 100 images.
I0825 19:54:51.463945 23095 image_data_layer.cpp:98] output data size: 30,3,48,48
I0825 19:54:51.467578 23095 net.cpp:122] Setting up data
I0825 19:54:51.467599 23095 net.cpp:129] Top shape: 30 3 48 48 (207360)
I0825 19:54:51.467604 23095 net.cpp:129] Top shape: 30 1 1 1 (30)
I0825 19:54:51.467607 23095 net.cpp:137] Memory required for data: 829560
I0825 19:54:51.467612 23095 layer_factory.hpp:77] Creating layer clc-label_data_1_split
I0825 19:54:51.467623 23095 net.cpp:84] Creating Layer clc-label_data_1_split
I0825 19:54:51.467628 23095 net.cpp:406] clc-label_data_1_split <- clc-label
I0825 19:54:51.467633 23095 net.cpp:380] clc-label_data_1_split -> clc-label_data_1_split_0
I0825 19:54:51.467644 23095 net.cpp:380] clc-label_data_1_split -> clc-label_data_1_split_1
I0825 19:54:51.467697 23095 net.cpp:122] Setting up clc-label_data_1_split
I0825 19:54:51.467705 23095 net.cpp:129] Top shape: 30 1 1 1 (30)
I0825 19:54:51.467708 23095 net.cpp:129] Top shape: 30 1 1 1 (30)
I0825 19:54:51.467710 23095 net.cpp:137] Memory required for data: 829800
I0825 19:54:51.467712 23095 layer_factory.hpp:77] Creating layer conv1
I0825 19:54:51.467725 23095 net.cpp:84] Creating Layer conv1
I0825 19:54:51.467730 23095 net.cpp:406] conv1 <- data
I0825 19:54:51.467736 23095 net.cpp:380] conv1 -> conv1
I0825 19:54:51.467924 23095 net.cpp:122] Setting up conv1
I0825 19:54:51.467932 23095 net.cpp:129] Top shape: 30 12 24 24 (207360)
I0825 19:54:51.467936 23095 net.cpp:137] Memory required for data: 1659240
I0825 19:54:51.467943 23095 layer_factory.hpp:77] Creating layer relu1
I0825 19:54:51.467950 23095 net.cpp:84] Creating Layer relu1
I0825 19:54:51.467953 23095 net.cpp:406] relu1 <- conv1
I0825 19:54:51.467957 23095 net.cpp:367] relu1 -> conv1 (in-place)
I0825 19:54:51.467962 23095 net.cpp:122] Setting up relu1
I0825 19:54:51.467967 23095 net.cpp:129] Top shape: 30 12 24 24 (207360)
I0825 19:54:51.467969 23095 net.cpp:137] Memory required for data: 2488680
I0825 19:54:51.467972 23095 layer_factory.hpp:77] Creating layer conv2
I0825 19:54:51.467978 23095 net.cpp:84] Creating Layer conv2
I0825 19:54:51.467981 23095 net.cpp:406] conv2 <- conv1
I0825 19:54:51.467985 23095 net.cpp:380] conv2 -> conv2
I0825 19:54:51.468166 23095 net.cpp:122] Setting up conv2
I0825 19:54:51.468173 23095 net.cpp:129] Top shape: 30 20 12 12 (86400)
I0825 19:54:51.468176 23095 net.cpp:137] Memory required for data: 2834280
I0825 19:54:51.468183 23095 layer_factory.hpp:77] Creating layer relu2
I0825 19:54:51.468188 23095 net.cpp:84] Creating Layer relu2
I0825 19:54:51.468189 23095 net.cpp:406] relu2 <- conv2
I0825 19:54:51.468196 23095 net.cpp:367] relu2 -> conv2 (in-place)
I0825 19:54:51.468204 23095 net.cpp:122] Setting up relu2
I0825 19:54:51.468211 23095 net.cpp:129] Top shape: 30 20 12 12 (86400)
I0825 19:54:51.468216 23095 net.cpp:137] Memory required for data: 3179880
I0825 19:54:51.468220 23095 layer_factory.hpp:77] Creating layer conv3
I0825 19:54:51.468230 23095 net.cpp:84] Creating Layer conv3
I0825 19:54:51.468236 23095 net.cpp:406] conv3 <- conv2
I0825 19:54:51.468243 23095 net.cpp:380] conv3 -> conv3
I0825 19:54:51.468636 23095 net.cpp:122] Setting up conv3
I0825 19:54:51.468659 23095 net.cpp:129] Top shape: 30 40 6 6 (43200)
I0825 19:54:51.468663 23095 net.cpp:137] Memory required for data: 3352680
I0825 19:54:51.468672 23095 layer_factory.hpp:77] Creating layer relu3
I0825 19:54:51.468677 23095 net.cpp:84] Creating Layer relu3
I0825 19:54:51.468680 23095 net.cpp:406] relu3 <- conv3
I0825 19:54:51.468685 23095 net.cpp:367] relu3 -> conv3 (in-place)
I0825 19:54:51.468690 23095 net.cpp:122] Setting up relu3
I0825 19:54:51.468695 23095 net.cpp:129] Top shape: 30 40 6 6 (43200)
I0825 19:54:51.468698 23095 net.cpp:137] Memory required for data: 3525480
I0825 19:54:51.468699 23095 layer_factory.hpp:77] Creating layer ip1-mouth
I0825 19:54:51.468706 23095 net.cpp:84] Creating Layer ip1-mouth
I0825 19:54:51.468710 23095 net.cpp:406] ip1-mouth <- conv3
I0825 19:54:51.468715 23095 net.cpp:380] ip1-mouth -> pool-mouth
I0825 19:54:51.470110 23095 net.cpp:122] Setting up ip1-mouth
I0825 19:54:51.470122 23095 net.cpp:129] Top shape: 30 128 (3840)
I0825 19:54:51.470125 23095 net.cpp:137] Memory required for data: 3540840
I0825 19:54:51.470131 23095 layer_factory.hpp:77] Creating layer fc-mouth
I0825 19:54:51.470139 23095 net.cpp:84] Creating Layer fc-mouth
I0825 19:54:51.470144 23095 net.cpp:406] fc-mouth <- pool-mouth
I0825 19:54:51.470149 23095 net.cpp:380] fc-mouth -> fc-mouth
I0825 19:54:51.470221 23095 net.cpp:122] Setting up fc-mouth
I0825 19:54:51.470227 23095 net.cpp:129] Top shape: 30 2 (60)
I0825 19:54:51.470228 23095 net.cpp:137] Memory required for data: 3541080
I0825 19:54:51.470235 23095 layer_factory.hpp:77] Creating layer fc-mouth_fc-mouth_0_split
I0825 19:54:51.470253 23095 net.cpp:84] Creating Layer fc-mouth_fc-mouth_0_split
I0825 19:54:51.470257 23095 net.cpp:406] fc-mouth_fc-mouth_0_split <- fc-mouth
I0825 19:54:51.470260 23095 net.cpp:380] fc-mouth_fc-mouth_0_split -> fc-mouth_fc-mouth_0_split_0
I0825 19:54:51.470265 23095 net.cpp:380] fc-mouth_fc-mouth_0_split -> fc-mouth_fc-mouth_0_split_1
I0825 19:54:51.470293 23095 net.cpp:122] Setting up fc-mouth_fc-mouth_0_split
I0825 19:54:51.470299 23095 net.cpp:129] Top shape: 30 2 (60)
I0825 19:54:51.470304 23095 net.cpp:129] Top shape: 30 2 (60)
I0825 19:54:51.470306 23095 net.cpp:137] Memory required for data: 3541560
I0825 19:54:51.470309 23095 layer_factory.hpp:77] Creating layer loss
I0825 19:54:51.470314 23095 net.cpp:84] Creating Layer loss
I0825 19:54:51.470315 23095 net.cpp:406] loss <- fc-mouth_fc-mouth_0_split_0
I0825 19:54:51.470319 23095 net.cpp:406] loss <- clc-label_data_1_split_0
I0825 19:54:51.470322 23095 net.cpp:380] loss -> loss
…
